share/meteorml32.tflite (tflite, 16160 bytes, 5 tensors)

sequential/conv2d/BiasAdd/ReadVariableOp/resource f4 [8]
0	0xbe878a2b	-0.264726
1	0xbe113ddc	-0.14183754
2	0x3cf2fa23	0.02966029
3	0xbe46b9aa	-0.19406763
4	0xbdfa524f	-0.1222273
5	0xbe245b82	-0.16050532
6	0xbe522908	-0.20523465
7	0xbe937281	-0.28798297

sequential/dense/BiasAdd/ReadVariableOp/resource f4 [16]
0	0x3ef00ad9	0.46883276
1	0x3eb22b46	0.3479864
2	0x3f269003	0.65063494
3	0x3e5d5a09	0.21616377
4	0x3f0bb3cf	0.5457124
5	0xbe1bf43a	-0.15229884
6	0x3b0ae2f1	0.0021192397
7	0x3e8d30a1	0.27576163
8	0x3f03f090	0.51538944
9	0xbc4818e7	-0.012212968
10	0x3ef5126f	0.47865626
11	0x3f01aabb	0.5065114
12	0x3eb83380	0.3597679
13	0x3ede12cf	0.43373725
14	0x3e6314ab	0.22175853
15	0x3ef10cc6	0.47080058

sequential/dense/MatMul f4 [16, 200]
0	0xbf305c20	-0.6889057
1	0xbe9cb937	-0.30610058
2	0xbdc93ce8	-0.0982607
3	0xbd3da66b	-0.046301287
4	0x3cbcc9a5	0.02304537
5	0xbe11ad11	-0.14226176
6	0xbf189667	-0.59604496
7	0x3f0aafd1	0.54174525
8	0xbe7a04a4	-0.24415833
9	0xbefacd03	-0.48984537
10	0x3ecc179c	0.39861763
11	0x3d91dcf1	0.07122219
12	0x3dbceb79	0.092246
13	0x3c817d4c	0.015806817
14	0x3ea088fb	0.31354508
15	0x3ee7c6fd	0.45269004
16	0xbdbbca1a	-0.09169407
17	0xbe783ac1	-0.24241163
18	0x3e6b832e	0.2299926
19	0x3e38595b	0.18002836
20	0x3e1ee43e	0.15516755
21	0xbdcc9ec1	-0.099912174
22	0xbf1a4c14	-0.60272336
23	0xbe8e71de	-0.2782125
24	0xbec131f3	-0.3773342
25	0xbf1d301d	-0.6140154
26	0xbe3144f6	-0.17311463
27	0xbe5fa3ba	-0.218398
28	0xbe271307	-0.16315852
29	0xbee7e719	-0.452935
30	0xbda0375b	-0.07823058
31	0x3e25a2d4	0.16175395
32	0xbf847d3d	-1.035072
33	0xbe205a2a	-0.15659395
34	0x3e8ba640	0.27275276
35	0xbcc5a3e9	-0.02412601
36	0x3ebcf205	0.36903396
37	0xbe831814	-0.25604308
38	0xbea4c68b	-0.32182726
39	0xbee38f31	-0.44445184
40	0xbe92ed1e	-0.2869653
41	0xb91f9f14	-0.00015222683
42	0x3ec3a914	0.38214934
43	0xbf1684e2	-0.58796513
44	0x3e194a2b	0.14969699
45	0x3eb1edfb	0.34751877
46	0xbf598560	-0.8496914
47	0x3e9e0868	0.30865788
48	0x3e644929	0.22293533
49	0xbe935290	-0.28773928
50	0x3ebefa80	0.3730049
51	0xbead1b73	-0.33810005
52	0xbef21923	-0.47284803
53	0x3de146dd	0.10999844
54	0x3eb488c3	0.3526059
55	0x3e08d131	0.1336105
56	0x3d655c70	0.05599636
57	0x3e84b4fb	0.25919327
58	0xbeb9809a	-0.36230928
59	0x3e3f47e0	0.18679762
60	0x3dd1b761	0.10240055
61	0x3e0a622b	0.1351401
62	0xbe1f7c32	-0.1557472
63	0x3deaaadc	0.1145837
64	0xbf687fa9	-0.90819794
65	0xbd190731	-0.037360374
66	0xbd44be36	-0.04803296
67	0xbe84c8e4	-0.25934517
68	0xbd66174e	-0.05617457
69	0x3ddd39af	0.10802018
70	0x3ee5e2f8	0.44899726
71	0x3e34324d	0.17597313
72	0xbf837c00	-1.0272217
73	0x3dd57acb	0.104238115
74	0x3e2a886a	0.166536
75	0x3d2f1956	0.04274877
76	0x3e42aabc	0.19010442
77	0xbee1c110	-0.44092607
78	0xbe7cd284	-0.2468968
79	0xbe70bbf3	-0.23509197
80	0xbc856e78	-0.016288027
81	0xbec5a9dd	-0.38606158
82	0x3e95544a	0.2916587
83	0x3e71ca62	0.23612359
84	0xbdd620fc	-0.1045551
85	0x3f028586	0.5098499
86	0x3eeee349	0.4665778
87	0xbe6529de	-0.22379252
88	0xbec72f6a	-0.38903362
89	0xbe9c259a	-0.30497438
90	0xbe064c4a	-0.1311504
91	0x3e87221c	0.2639321
92	0xbee2638a	-0.44216567
93	0x3ee2145d	0.4415616
94	0x3e91a782	0.2844811
95	0xbe3a5d60	-0.18199682
96	0xbe31cc55	-0.17363103
97	0xbe1d8d9b	-0.1538605
98	0xbf3e48a6	-0.743296
99	0x3ed2a6f6	0.41143006
100	0xbe001873	-0.12509327
101	0xbeb5e6c1	-0.35527614
102	0x3ed374e8	0.4130013
103	0xbe671a18	-0.22568548
104	0xbf5e0dae	-0.86739624
105	0x3e9b3636	0.30314797
106	0x3d1ffe0f	0.03906065
107	0x3e94570e	0.28972667
108	0xbe4175c1	-0.18892576
109	0xbe20cb1c	-0.1570248
110	0x3e5d3c9d	0.21605153
111	0xbf027baa	-0.50969946
112	0xbfe0bd9c	-1.7557864
113	0xb9e49e9b	-0.0004360572
114	0x3e0bf324	0.1366697
115	0x3dfba688	0.12287623
116	0xbe3c987a	-0.1841754
117	0x3e01bb1c	0.12669033
118	0x3d9a7287	0.075413756
119	0xbe0b242a	-0.13588014
120	0xbe9450cf	-0.28967902
121	0x3d5bc2dc	0.05365263
122	0xbea730d0	-0.32654428
123	0x3e0e05c7	0.13869391
124	0xbd76991f	-0.06020462
125	0xbed028a4	-0.40656006
126	0x3dbd7f5f	0.0925281
127	0xbd38562c	-0.045004055
128	0xbea24c50	-0.31698847
129	0x3cf17321	0.029473843
130	0x3e7ddfa6	0.24792346
131	0x3eca53ee	0.39517158
132	0xbdd1a589	-0.102366515
133	0x3d380062	0.04492224
134	0x3e9e8013	0.30957088
135	0x3e90db07	0.28292105
136	0xbe449c82	-0.19200328
137	0xbd126f6f	-0.035750803
138	0x3e1fff59	0.15624751
139	0xbe2c0a96	-0.16800913
140	0x3d825359	0.063635536
141	0xbf98d98a	-1.1941388
142	0x3e215b16	0.15757403
143	0x3da8c220	0.082401514
144	0xbec93bdc	-0.39303482
145	0x3e79029a	0.24317399
146	0x3ddcb4e6	0.10776691
147	0xbe0853a3	-0.13313155
148	0xbf606c40	-0.87665176
149	0xbe8aa04e	-0.27075428
150	0xbf9cf29e	-1.2261541
151	0xbf8d0bea	-1.1019261
152	0xbebfb9e5	-0.37446514
153	0xbe7edece	-0.2488968
154	0xbe469f44	-0.19396693
155	0x3eb773d5	0.3583056
156	0xbf80bc99	-1.0057555
157	0xbdf91e88	-0.121640265
158	0xbebb535e	-0.36587042
159	0xbdfcb86c	-0.12339863
160	0xbf35a07f	-0.7094802
161	0xbeaf2fb5	-0.34216085
162	0xbdfa7a42	-0.1223035
163	0x3ce06486	0.027391683
164	0xbe63b1dc	-0.22235817
165	0xbf18158c	-0.5940788
166	0x3e79531a	0.24348107
167	0x3c6e6536	0.014550498
168	0xbf069003	-0.52563494
169	0xbe41fdb8	-0.18944442
170	0x3e08c1f8	0.13355243
171	0xbe9879d4	-0.29780447
172	0x3e2b93da	0.1675562
173	0xbf109c26	-0.56488264
174	0x3eedc365	0.46438137
175	0xbde14d70	-0.11001098
176	0x3e9f13ca	0.31069785
177	0xbead787f	-0.33880994
178	0x3dbd02f7	0.09229081
179	0xbe23cebc	-0.15996832
180	0xbdd60311	-0.104498036
181	0xbe5e6494	-0.21718055
182	0x3de96436	0.11396067
183	0xbe9f27cd	-0.31085053
184	0x3f0900f3	0.53517073
185	0x3eb31e2e	0.34983963
186	0x3d99be4d	0.07507
187	0x3e41b0b3	0.18915062
188	0xbe430bbb	-0.19047444
189	0xbf01f0c3	-0.50758
190	0x3d3fed70	0.046857297
191	0xbf0b0b42	-0.54314053
192	0xbea15a50	-0.31514215
193	0xbe6ae41f	-0.22938584
194	0xbe1dff03	-0.1542931
195	0x3c928da7	0.01788981
196	0x3d3dc094	0.046326235
197	0xbdc0dc1a	-0.09416981
198	0xbf2e3395	-0.6804746
199	0x3d84c689	0.0648318
200	0x3d7b7298	0.061388582
201	0xbce4e593	-0.0279415
202	0xbe8074cd	-0.25089112
203	0x3e99bd09	0.30027035
204	0xbe48cd57	-0.19609581
205	0x3d477fe0	0.048705935
206	0x3b9ba6b2	0.0047500962
207	0xbe1263d1	-0.1429589
208	0x3e6f10a0	0.23346186
209	0xbe1eb49c	-0.15498585
210	0xbe81987e	-0.25311655
211	0x3e1d8c4b	0.15385549
212	0x3dad8528	0.08472663
213	0x3de0c63e	0.10975312
214	0xbe48928c	-0.19587153
215	0x3e5e6089	0.21716513
216	0x3d91d906	0.07121472
217	0x3cbeeee3	0.02330727
218	0xbd5e4a64	-0.054270163
219	0x3e3b5450	0.18293881
220	0xbe76fd58	-0.2412008
221	0x3d8e1009	0.06936652
222	0x3e90122d	0.28138867
223	0x3eab3385	0.33437744
224	0x3e285528	0.16438735
225	0xbc14d3d9	-0.009083712
226	0xbe25abb9	-0.16178788
227	0x3d52a0ca	0.05142287
228	0x3dcbfa76	0.09959881
229	0x3e7f39b4	0.24924356
230	0xbc2ce81d	-0.010553387
231	0xbd297038	-0.041366786
232	0xbd7379db	-0.059442382
233	0xbe5fbde7	-0.21849786
234	0xbe908c30	-0.28231955
235	0x3e10559b	0.14095156
236	0xbe0ad858	-0.13559091
237	0x3e856fab	0.26061758
238	0x3e0a22b1	0.13489796
239	0x3e9436e0	0.28948116
240	0xbde6c7f1	-0.112686045
241	0xbeb901c1	-0.3613415
242	0xbe63e242	-0.2225428
243	0x3ef0274f	0.4690499
244	0x3d2c6912	0.04209239
245	0x3d124f99	0.03572044
246	0x3e2bada3	0.16765456
247	0x3c9e6294	0.019334115
248	0x3e8bf903	0.27338418
249	0xbe50d31a	-0.20393029
250	0x3c5a1d24	0.013312612
251	0x3d033924	0.032036915
252	0xbce15e2b	-0.027510723
253	0x3e4d463b	0.20046322
254	0xbe07260d	-0.13198109
255	0x3ded519d	0.11587832

sequential/dense_1/MatMul f4 [1, 16]
0	0x3f3645d7	0.7120032
1	0xbd8cdd18	-0.06878108
2	0xbf4e84e4	-0.80671525
3	0xbf98b256	-1.1929424
4	0x3f927317	1.1441373
5	0xbf01de07	-0.5072941
6	0xbf01539b	-0.50518197
7	0x3fedd3dc	1.8580279
8	0x3f5ecde2	0.870329
9	0x3f8c96b1	1.0983487
10	0x3f958401	1.1680909
11	0xbf17e2f4	-0.5933068
12	0x3f5b5ae6	0.85685575
13	0xbe8b7065	-0.27234188
14	0xbee68e3c	-0.4503039
15	0x3fa55a33	1.2918152

sequential/conv2d/Conv2D f4 [8, 5, 5, 1]
0	0x3e4c0a3a	0.19925776
1	0x3dcd0ae3	0.10011842
2	0x3cc9e1af	0.024643747
3	0x3ef90b91	0.48641637
4	0x3e182959	0.14859523
5	0xbe12ce00	-0.14336395
6	0xbe3638b6	-0.17795071
7	0xbe818199	-0.25294188
8	0x3dd3d50e	0.10343371
9	0x3f090a73	0.5353157
10	0xbe96202e	-0.29321426
11	0xbeb3d13f	-0.3512058
12	0xbeb94e5f	-0.36192605
13	0xbecf8a15	-0.40535036
14	0x3f0c756f	0.5486669
15	0xbe8a3849	-0.26996067
16	0xbea36fcb	-0.3192123
17	0xbef965ab	-0.4871038
18	0xbf39968f	-0.7249536
19	0x3e8133ac	0.25234735
20	0xbdc2312a	-0.094820336
21	0xbe8b8e7d	-0.27257147
22	0xbe01e6c3	-0.12685685
23	0xbf09e5c8	-0.53866243
24	0x3df48b20	0.119405985
25	0x3f112220	0.56692696
26	0x3dbcff71	0.09228409
27	0x3dc7d134	0.09756699
28	0x3e8a0bbd	0.2696208
29	0x3e2d42bb	0.16919987
30	0x3f2ac28a	0.66703093
31	0x3e09b780	0.13448906
32	0xbecde1de	-0.40211385
33	0xbe45a928	-0.19302809
34	0xbe3025bd	-0.17201896
35	0xbe57c288	-0.21070302
36	0x3ef1d631	0.47233728
37	0x3d8d9bcb	0.06914481
38	0x3cf2d078	0.029640421
39	0x3b8d0e81	0.0043047075
40	0xbdfd956f	-0.12382018
41	0x3d9872e4	0.07443789
42	0x3d95f6ce	0.07322465
43	0x3e49611f	0.19665955
44	0x3e53e83f	0.20694064
45	0xbde76559	-0.112986274
46	0x3e823510	0.25431108
47	0x3e230de6	0.1592327
48	0x3e1e32cc	0.15449065
49	0x3d638312	0.05554492
50	0x3e96d721	0.29461005
51	0x3f2ea53f	0.68220896
52	0x3ea67f2c	0.325189
53	0xbe08b6d0	-0.13350987
54	0xbe721210	-0.23639703
55	0x3f01aff2	0.50659096
56	0x3d9f053c	0.0776467
57	0x3cfd3576	0.030909281
58	0x3ecbb340	0.39785194
59	0x3e346f19	0.17620505
60	0x3e46dc83	0.19420056
61	0xbf24918e	-0.642846
62	0xbeb78af6	-0.35848206
63	0x3db46bd9	0.08809633
64	0x3e20613f	0.15662096
65	0x3e98e80a	0.29864532
66	0xbeaf4a51	-0.34236386
67	0xbdcdba01	-0.10045243
68	0x3c86fcbe	0.016477939
69	0x3dc2248e	0.094796285
70	0x3e1ae018	0.15124547
71	0xbe4458e8	-0.1917454
72	0xbe446783	-0.19180112
73	0xbe91aa17	-0.2845008
74	0x3bcb4045	0.00620273
75	0x3e541b7c	0.2071361
76	0xbe558d55	-0.20854695
77	0x3e1d5b35	0.15366824
78	0xbd8e4258	-0.06946248
79	0x3deb1782	0.11479093
80	0x3e95b0c6	0.2923643
81	0x3e6e8576	0.23293099
82	0x3f05bf98	0.52245474
83	0x3e93dc99	0.2887924
84	0x3ddaf0b9	0.106904455
85	0x3eb24684	0.34819424
86	0x3eadab38	0.33919692
87	0xbe0174f9	-0.12642278
88	0xbeaeb8cb	-0.3412536
89	0xbeb374d1	-0.3505006
90	0xbe1689c3	-0.1470099
91	0x3ee9a491	0.45633367
92	0xbe11b0c9	-0.14227594
93	0xbeec2acb	-0.46126398
94	0xbf2be4d5	-0.67146045
95	0xbdb32207	-0.087467246
96	0x3ef96cd1	0.48715833
97	0xbe1f2cd5	-0.15544446
98	0xbe8b2872	-0.27179295
99	0xbe9d655e	-0.307414
100	0xbf9c9476	-1.2232807
101	0xbef71703	-0.48259744
102	0x3e842388	0.25808358
103	0x3e398242	0.18116096
104	0x3d8ac25a	0.06775351
105	0xbdc63ad8	-0.09679192
106	0x3edcb62e	0.43107742
107	0xbd7efbb6	-0.06225177
108	0x3e80ff2d	0.25194684
109	0xbe055f13	-0.13024549
110	0x3e5ae1d2	0.21375206
111	0x3ba6d06f	0.005090765
112	0xbd1ce076	-0.0383
113	0x3e694582	0.22780421
114	0xbedbbf4a	-0.4291938
115	0x3ef58c4f	0.4795861
116	0x3c740888	0.014894612
117	0x3d81d101	0.063386925
118	0x3e92686e	0.285953
119	0xbf07f8f9	-0.5311428
120	0xbe75afea	-0.23992887
121	0x3cb5defa	0.02220105
122	0x3ecd02d4	0.4004122
123	0x3e24b6e9	0.160854
124	0xbcce7918	-0.025204226
125	0xbf65ece4	-0.8981459
126	0xbf47ab79	-0.7799602
127	0xbf3bd01a	-0.7336441
128	0xbf255511	-0.64582926
129	0xbf1b546f	-0.6067571
130	0xbf613daa	-0.87984717
131	0xbf5a0baf	-0.8517408
132	0xbf175cc7	-0.5912594
133	0xbf4951ae	-0.7864026
134	0xbf3d2a6c	-0.73892856
135	0x3cfc5a54	0.03080479
136	0xbe61a7e9	-0.22036709
137	0xbf1b8b84	-0.6075976
138	0xbf255640	-0.6458473
139	0xbf0e5166	-0.55592954
140	0x3cc88bc1	0.024480702
141	0x3d97ff92	0.07421793
142	0xbd30440f	-0.043033656
143	0x3c9c3ae5	0.019071052
144	0x3cf313a5	0.029672453
145	0x3e624b04	0.22098929
146	0x3e809075	0.25110212
147	0x3e879376	0.2647969
148	0x3e8181bb	0.2529429
149	0x3e3b887b	0.18313782
150	0x3e60f066	0.21966705
151	0xbf2afec4	-0.6679499
152	0xbed292c8	-0.4112761
153	0xbf034233	-0.51272887
154	0x3f20afc5	0.62768203
155	0x3e0c1171	0.13678528
156	0xbe574fbb	-0.21026509
157	0x3ce7b1d6	0.028283041
158	0x3e87f675	0.2655522
159	0x3f082f03	0.53196734
160	0x3e52edd0	0.20598531
161	0x3cdec25a	0.027192283
162	0x3eb513c2	0.35366637
163	0x3eea81b5	0.45802084
164	0x3d9ac05b	0.0755622
165	0xbe5488a2	-0.20755246
166	0xbcf91f06	-0.030410301
167	0x3da50bea	0.08058913
168	0xbc459315	-0.012058993
169	0xbe28a272	-0.16468218
170	0x3df7f0ae	0.12106453
171	0xbdc92f3e	-0.09823464
172	0xbdbc9ced	-0.09209619
173	0xbec36c0c	-0.3816837
174	0xbdf4e065	-0.11956862
175	0x3e871630	0.26384115
176	0x3eda66f8	0.42656684
177	0xbf045dff	-0.51705927
178	0xbe3a8347	-0.18214141
179	0x3de4c1d6	0.11169784
180	0x3e96f1bb	0.294813
181	0xbdb4e3d1	-0.08832515
182	0xbfa10e31	-1.2582456
183	0xbeb84285	-0.3598825
184	0x3dec6afc	0.11543843
185	0xbf471899	-0.7777191
186	0xbf322523	-0.69587916
187	0xbf3d1590	-0.73861027
188	0xbed4af8a	-0.41540176
189	0x3e3153c7	0.17317115
190	0xbf583560	-0.84456444
191	0xbf288769	-0.6583162
192	0xbeb82755	-0.35967508
193	0xbeb64b4e	-0.35604328
194	0x3f0a1add	0.5394724
195	0x3d5977f8	0.053092927
196	0xbf23dead	-0.6401165
197	0xbd269ba9	-0.040675793
198	0x3ec3ffeb	0.38281187
199	0xbd16e562	-0.03683985
